…
me', name = 'Convolutional_Layer_7')(x) # Model autoencoder = Model(inputs = [input_layer], outputs = [output_layer]) autoencoder.compile(optimizer = 'adam', loss='mean_squared_error', metrics=['mae']) return autoencoder  ae = autoencoder() ae.summary()  Model: \u0026quot;model\u0026quot; _________________________________________________________________ Layer (type) Output Shape Param # ================================================================= Image_Input (InputLayer) [(None, 420, 540, 1)] 0 _________________________________________________________________ Convolutional_Layer_1 (Conv2 (None, 420, 540, 32) 320 _________________________________________________________________ Convolutional_Layer_2 (Conv2 (None, 420, 540, 64) 18496 _________________________________________________________________ batch_normalization (BatchNo (None, 420, 540, 64) 256 _________________________________________________________________ Pooling_Layer_3 (MaxPooling2 (None, 210, 270, 64) 0 _________________________________________________________________ Convolutional_Layer_5 (Conv2 (None, 210, 270, 64) 36928 _________________________________________________________________ Convolutional_Layer_6 (Conv2 (None, 210, 270, 32) 18464 _________________________________________________________________ batch_normalization_1 (Batch (None, 210, 270, 32) 128 _________________________________________________________________ UpSampling_Layer_3 (UpSampli (None, 420, 540, 32) 0 _________________________________________________________________ Convolutional_Layer_7 (Conv2 (None, 420, 540, 1) 289 ================================================================= Total params: 74,881 Trainable params: 74,689 Non-trainable params: 192 _________________________________________________________________  keras.utils.plot_model(ae, \u0026quot;assets/autoencoder.png\u0026quot;, show_shapes=True)  X_train, X_valid, y_train, y_valid = train_test_split(X, y, test_size=0.1, random_state=0) print(\u002
…
