…
    autoencoder.compile(optimizer = &#39;adam&#39;, loss=&#39;mean_squared_error&#39;, metrics=[&#39;mae&#39;])
    
    return autoencoder
&lt;/code&gt;&lt;/pre&gt;
&lt;pre&gt;&lt;code class=&#34;language-python&#34;&gt;ae = autoencoder()
ae.summary()
&lt;/code&gt;&lt;/pre&gt;
&lt;pre&gt;&lt;code&gt;Model: &amp;quot;model&amp;quot;
_________________________________________________________________
Layer (type)                 Output Shape              Param #   
=================================================================
Image_Input (InputLayer)     [(None, 420, 540, 1)]     0         
_________________________________________________________________
Convolutional_Layer_1 (Conv2 (None, 420, 540, 32)      320       
_________________________________________________________________
Convolutional_Layer_2 (Conv2 (None, 420, 540, 64)      18496     
_________________________________________________________________
batch_normalization (BatchNo (None, 420, 540, 64)      256       
_________________________________________________________________
Pooling_Layer_3 (MaxPooling2 (None, 210, 270, 64)      0         
_________________________________________________________________
Convolutional_Layer_5 (Conv2 (None, 210, 270, 64)      36928     
_________________________________________________________________
Convolutional_Layer_6 (Conv2 (None, 210, 270, 32)      18464     
_________________________________________________________________
batch_normalization_1 (Batch (None, 210, 270, 32)      128       
_________________________________________________________________
UpSampling_Layer_3 (UpSampli (None, 420, 540, 32)      0         
_________________________________________________________________
Convolutional_Layer_7 (Conv2 (None, 420, 540, 1)       289       
=================================================================
Total params: 74,881
Trainable params: 74,689
Non-trainable params: 192
_________________________________________________________________
&lt;/code&gt;&lt;/pre&gt;
&lt;pre&gt;&lt;code class=&#34;language-python&#34;&gt;keras.utils.plot_model(ae, &amp;quot;assets/autoencoder.png&amp;quot;, show_shapes=True)
&lt;/code&gt;&lt;/pre&gt;
…
